data/temperature_model.pt (torch, 246983 bytes, 26 tensors)

weight_ih_l0 f4 [128, 5]
0	0x3ce4aa1d	0.027913148
1	0x3e58f3ca	0.21186748
2	0xbe81ab3c	-0.25325954
3	0xbda0914a	-0.07840212
4	0xbcfd96cd	-0.030955696
5	0xbc0bedd7	-0.008540592
6	0x3e4a2dff	0.19744109
7	0xbdd25535	-0.10270158
8	0xbe4afc22	-0.19822744
9	0x3de86234	0.11346856
10	0x3db4648f	0.088082425
11	0xbd9ef8ea	-0.0776232
12	0x3e3acc38	0.18241966
13	0x3de09bcf	0.10967218
14	0x3e4f7bb2	0.2026203
15	0x3e2e4ea3	0.17022185
16	0x3dac6043	0.08416798
17	0xbe75d942	-0.24008659
18	0xbd3698df	-0.044579383
19	0x3d59325f	0.053026553
20	0x3cb59364	0.022165008
21	0x3d4a6ebe	0.04942202
22	0x3e554e3f	0.2083063
23	0x3df57946	0.11986022
24	0x3c80d89a	0.015728284
25	0x3de2682c	0.110550255
26	0xbd510753	-0.051032376
27	0x3d4d6995	0.05014952
28	0x3dfaf1ef	0.122531764
29	0x3d9a0ca0	0.07521939
30	0x3d91200e	0.07086192
31	0x3def1b3b	0.11675116
32	0x3df83216	0.12118928
33	0xbd5519aa	-0.05202643
34	0x3cfe3f11	0.031035932
35	0x3e1912a8	0.14948523
36	0x3d66b670	0.05632633
37	0xbd8a6088	-0.06756693
38	0xbe1486c0	-0.14504528
39	0x3df62967	0.120196156
40	0x3e244e5b	0.16045515
41	0x3e265ad1	0.16245581
42	0xbd150d68	-0.03638974
43	0xbdcb5841	-0.099289425
44	0x3df708fd	0.12062261
45	0x3db4d7bc	0.088302106
46	0x3cb9da9c	0.022687249
47	0xbead71ca	-0.33875877
48	0xbddf9b01	-0.109182365
49	0x3da0cd31	0.07851637
50	0x3dd690ba	0.10476823
51	0x3d3e0919	0.046395395
52	0x3e29fb69	0.16599812
53	0x3e0eead9	0.13956775
54	0x3e47270a	0.19448486
55	0xbd4537ad	-0.0481488
56	0xbe174a68	-0.14774477
57	0x394a77e1	0.0001930888
58	0xbd919bc9	-0.07109792
59	0x3d631462	0.05543936
60	0xbb8ac9ba	-0.0042354735
61	0x3dd82288	0.10553461
62	0x3c44ad6b	0.012004237
63	0xbb92c90b	-0.0044795326
64	0x3df78463	0.12085798
65	0xbd12c597	-0.035832968
66	0xbdb533f8	-0.08847803
67	0xbda66814	-0.0812532
68	0x3d352a88	0.044230014
69	0x3de7107f	0.11282443
70	0xbd9d907c	-0.07693574
71	0x3d777f37	0.060424056
72	0xbe0b6c17	-0.13615452
73	0xbda44173	-0.08020296
74	0x3e246482	0.16053966
75	0x3dfe28f7	0.12410157
76	0x3e277b82	0.16355708
77	0xbeb28db2	-0.3487373
78	0x3ce87827	0.028377606
79	0x3d99827b	0.0749559
80	0x3def4ee9	0.11684973
81	0x3d02ee71	0.031965677
82	0xbe97ffdb	-0.2968739
83	0xbe1fb477	-0.15596186
84	0x3e8d8455	0.27640024
85	0xbc9c50e0	-0.019081533
86	0xbde8bd35	-0.113642134
87	0x3d4cccf0	0.05000013
88	0x3d669f22	0.056304105
89	0x3dc19533	0.094522856
90	0x3e25d82b	0.16195743
91	0x3d6bbba8	0.05755201
92	0x3ecd5b27	0.40108606
93	0x3e1e74c9	0.15474238
94	0x3ca7adec	0.020468675
95	0x3de239f6	0.110462114
96	0xbdb62515	-0.088937916
97	0xbe603abc	-0.21897405
98	0xbd90c259	-0.07068319
99	0x3e16df9c	0.14733738
100	0xbc32eb86	-0.010920411
101	0x3cff954b	0.031199118
102	0xbe13dec6	-0.1444045
103	0xbdc07105	-0.09396557
104	0xbc1d115c	-0.009586658
105	0x3e1c2781	0.15249445
106	0xbd1ccb3a	-0.03827975
107	0xbef2277d	-0.47295752
108	0xbe374e59	-0.17900981
109	0xbbd0d6c9	-0.0063732606
110	0xba83e3c8	-0.0010062391
111	0x3c9b5050	0.018959194
112	0x3e9dbe7a	0.30809385
113	0xbe0439b6	-0.1291264
114	0x3e13f249	0.14447893
115	0x3dc9ccbc	0.09853503
116	0xbd895750	-0.06706107
117	0x3f071ddf	0.52779955
118	0x3ef889ca	0.48542625
119	0x3e44a5e0	0.19203901
120	0xbbe3b3d8	-0.0069489293
121	0xbd6b625d	-0.057466853
122	0x3e355808	0.17709363
123	0xbb837abe	-0.0040124347
124	0x3e6fd34e	0.2342045
125	0xbc2343dd	-0.00996491
126	0x3e135693	0.14388494
127	0xbe1594ef	-0.14607595
128	0xbd72c55e	-0.059270255
129	0x3c54e44b	0.012993882
130	0xbde2ebde	-0.11080144
131	0x3e17bf95	0.14819176
132	0xbd7e87c4	-0.062141195
133	0x3db330bf	0.08749532
134	0xb9655262	-0.00021869832
135	0x3dd573f5	0.10422508
136	0x3b4344d6	0.0029795668
137	0x3ecc867d	0.39946356
138	0x3ed12d5b	0.40854916
139	0x3e8c10fa	0.27356702
140	0x3dde0312	0.10840429
141	0x3cabc48e	0.020967748
142	0xbe89dd58	-0.26926684
143	0x3d60e2ff	0.05490398
144	0x3e20e5cc	0.1571266
145	0x3d1aea38	0.037821025
146	0x3d5cc7e4	0.053901568
147	0xbdec19f1	-0.115283854
148	0x3d156d92	0.036481448
149	0x3e352309	0.17689146
150	0x3d9a82a0	0.07544446
151	0x3de98aa0	0.11403394
152	0xbe910fa6	-0.2833225
153	0x3df22939	0.11824269
154	0x3d9377d6	0.07200591
155	0x3d1c862c	0.038213894
156	0xbd271b2e	-0.040797405
157	0x3e907f1d	0.2822198
158	0x3b837c9b	0.004012657
159	0x3e75a75c	0.23989624
160	0x000300c3	2.7578e-40
161	0x00059af0	5.14759e-40
162	0x80031dcb	-2.86194e-40
163	0x0002e9ab	2.67495e-40
164	0x8001de16	-1.71505e-40
165	0x80050573	-4.61132e-40
166	0x000096c7	5.4089e-41
167	0x80052416	-4.72123e-40
168	0x000116a1	9.9953e-41
169	0x800227b1	-1.9791e-40
170	0x0005066a	4.61478e-40
171	0x8004abf2	-4.29024e-40
172	0x8001d0bb	-1.66714e-40
173	0x0004109f	3.73305e-40
174	0x00011a9a	1.01378e-40
175	0x0002af06	2.46458e-40
176	0x0002275c	1.9779e-40
177	0x00026e18	2.23165e-40
178	0x800674c4	-5.929e-40
179	0x8000b17b	-6.3668e-41
180	0x80028ebd	-2.34876e-40
181	0x8004172e	-3.75657e-40
182	0x80000501	-1.795e-42
183	0x8003ab61	-3.36986e-40
184	0x80061f07	-5.62143e-40
185	0x00063c93	5.72743e-40
186	0x00063ebb	5.73516e-40
187	0x80049e96	-4.24232e-40
188	0x80049ffa	-4.24731e-40
189	0x80039cb8	-3.31727e-40
190	0x8001a1c7	-1.4987e-40
191	0x8003dd18	-3.5482e-40
192	0x8003deaa	-3.55383e-40
193	0x00058dc6	5.10036e-40
194	0x00044c42	3.94698e-40
195	0x0006444c	5.75513e-40
196	0x0001e738	1.74781e-40
197	0x8005e0a8	-5.39769e-40
198	0x00009188	5.2207e-41
199	0x80001273	-6.618e-42
200	0x80066fb1	-5.9108e-40
201	0x00055dd7	4.92841e-40
202	0x8006fdd7	-6.42074e-40
203	0x8004e414	-4.49161e-40
204	0x80022d9e	-2.00035e-40
205	0x80015961	-1.23899e-40
206	0x0001e2d4	1.73206e-40
207	0x0004d34c	4.43141e-40
208	0x0006cc11	6.24218e-40
209	0x00007040	4.0268e-41
210	0x000509d7	4.62707e-40
211	0x00008d51	5.0695e-41
212	0x80005fd4	-3.4377e-41
213	0x0002ef9d	2.69628e-40
214	0x00041f51	3.78576e-40
215	0x8004cc18	-4.40557e-40
216	0x0005340a	4.77846e-40
217	0x00041bbf	3.77295e-40
218	0x8004e63f	-4.49939e-40
219	0x80061765	-5.59405e-40
220	0x0003d84f	3.53103e-40
221	0x80038143	-3.21877e-40
222	0x0001100c	9.7592e-41
223	0x80052b51	-4.74716e-40
224	0x0006b20d	6.14886e-40
225	0x8000d8b3	-7.7737e-41
226	0x00062c94	5.67005e-40
227	0x000170e2	1.3233e-40
228	0x00065ce3	5.84334e-40
229	0x00053f3d	4.81863e-40
230	0x0006dadf	6.29529e-40
231	0x80051fb8	-4.70556e-40
232	0x0003aaf0	3.36827e-40
233	0x8004690a	-4.05023e-40
234	0x8000bdca	-6.8083e-41
235	0x80065409	-5.81159e-40
236	0x80042a43	-3.82503e-40
237	0x00044a0d	3.93906e-40
238	0x0005a155	5.17053e-40
239	0x80004ca0	-2.7488e-41
240	0x8002d68d	-2.60637e-40
241	0x000012d1	6.75e-42
242	0x00060e13	5.56062e-40
243	0x00054cdb	4.86748e-40
244	0x800619cf	-5.60271e-40
245	0x8001ff2a	-1.83371e-40
246	0x000606ab	5.53405e-40
247	0x80019887	-1.46552e-40
248	0x000477d6	4.10331e-40
249	0x0000b77e	6.5825e-41
250	0x8000d011	-7.464e-41
251	0x800386c0	-3.23846e-40
252	0x800469f2	-4.05348e-40
253	0x800316fd	-2.83753e-40
254	0x80048245	-4.14074e-40
255	0x0002c292	2.5347e-40

weight_hh_l0 f4 [128, 32]
0	0x8000c635	-7.1103e-41
1	0x8003a208	-3.33632e-40
2	0x0006b9ef	6.17713e-40
3	0x80016643	-1.2852e-40
4	0x8004034e	-3.68527e-40
5	0x0004a669	4.27039e-40
6	0x00057fb2	5.04986e-40
7	0x0004b011	4.30503e-40
8	0x00053036	4.76472e-40
9	0x80005de3	-3.368e-41
10	0x00009c83	5.6146e-41
11	0x00046181	4.0232e-40
12	0x80007878	-4.3216e-41
13	0x8004d5ba	-4.44013e-40
14	0x00028cfd	2.34248e-40
15	0x0003364b	2.94983e-40
16	0x80053d6b	-4.8121e-40
17	0x80069b3b	-6.06699e-40
18	0x8003a803	-3.35778e-40
19	0x00021574	1.91367e-40
20	0x80005010	-2.8721e-41
21	0x800539da	-4.79931e-40
22	0x80007fee	-4.5893e-41
23	0x00047964	4.10889e-40
24	0x80052804	-4.73532e-40
25	0x00058005	5.05102e-40
26	0x00018c8c	1.42254e-40
27	0x00021cb4	1.93968e-40
28	0x8004db1c	-4.45944e-40
29	0x00002e68	1.6647e-41
30	0x0004adf4	4.29745e-40
31	0x00016b9a	1.30436e-40
32	0x80024673	-2.08943e-40
33	0x8004a0b7	-4.24996e-40
34	0x0002fcef	2.74406e-40
35	0x0005db95	5.37949e-40
36	0x0006c857	6.22881e-40
37	0x80019436	-1.45004e-40
38	0x000503ef	4.60589e-40
39	0x00016475	1.27873e-40
40	0x80004e40	-2.8071e-41
41	0x8001e8cc	-1.75347e-40
42	0x8000359e	-1.9234e-41
43	0x8004f18b	-4.53991e-40
44	0x8002c0aa	-2.52786e-40
45	0x8000b987	-6.6555e-41
46	0x000199ac	1.46963e-40
47	0x0002056e	1.85619e-40
48	0x80055d3b	-4.92622e-40
49	0x80050f67	-4.64703e-40
50	0x0001632b	1.2741e-40
51	0x00046559	4.03699e-40
52	0x8004649c	-4.03434e-40
53	0x0001b1fb	1.55683e-40
54	0x00063660	5.70519e-40
55	0x80010500	-9.3629e-41
56	0x80018b51	-1.41813e-40
57	0x80017c15	-1.36348e-40
58	0x8000c119	-6.927e-41
59	0x8003b05c	-3.38772e-40
60	0x000301f7	2.76211e-40
61	0x8004beda	-4.35807e-40
62	0x00018ada	1.41646e-40
63	0x00005a6d	3.2439e-41
64	0x000513aa	4.66232e-40
65	0x0006f763	6.39759e-40
66	0x80043310	-3.8566e-40
67	0x80053173	-4.76917e-40
68	0x800250f8	-2.12717e-40
69	0x0006aa42	6.1209e-40
70	0x80050c68	-4.63628e-40
71	0x8002154f	-1.91315e-40
72	0x00023cfc	2.05548e-40
73	0x000522db	4.71681e-40
74	0x0001fb2e	1.81942e-40
75	0x8004c4d5	-4.37952e-40
76	0x80015115	-1.20922e-40
77	0x8006b999	-6.17593e-40
78	0x800059f9	-3.2276e-41
79	0x0006621c	5.86208e-40
80	0x00003e22	2.2289e-41
81	0x00060fa1	5.5662e-40
82	0x00016ca8	1.30814e-40
83	0x8003fc01	-3.65908e-40
84	0x00038cd0	3.2602e-40
85	0x80004bfc	-2.7258e-41
86	0x00012742	1.05919e-40
87	0x8003bdf9	-3.43656e-40
88	0x8001829b	-1.38688e-40
89	0x8002a724	-2.4363e-40
90	0x8005e9b9	-5.43021e-40
91	0x0003ef26	3.61297e-40
92	0x0005a478	5.18178e-40
93	0x0000367c	1.9545e-41
94	0x80065011	-5.79735e-40
95	0x8003a56a	-3.34846e-40
96	0x00011aeb	1.01492e-40
97	0x0005f2e1	5.46306e-40
98	0x000608d1	5.54176e-40
99	0x8002ae63	-2.46229e-40
100	0x0003b561	3.40573e-40
101	0x8000efe7	-8.6061e-41
102	0x80057469	-5.00938e-40
103	0x0000835a	4.712e-41
104	0x80030fb8	-2.81145e-40
105	0x8006bd3f	-6.18902e-40
106	0x0004690d	4.05027e-40
107	0x800130f7	-1.09401e-40
108	0x8006b8b0	-6.17266e-40
109	0x8001044b	-9.3376e-41
110	0x00020660	1.85958e-40
111	0x0006b9b4	6.17631e-40
112	0x80064616	-5.76155e-40
113	0x8005c467	-5.29633e-40
114	0x00012d6b	1.08128e-40
115	0x0005212b	4.71076e-40
116	0x80009975	-5.505e-41
117	0x8003a392	-3.34184e-40
118	0x00041478	3.74685e-40
119	0x00044509	3.92107e-40
120	0x0003af7b	3.38457e-40
121	0x8002f22f	-2.7055e-40
122	0x000584cd	5.06817e-40
123	0x8006bc53	-6.18571e-40
124	0x80037e61	-3.20843e-40
125	0x80005deb	-3.3691e-41
126	0x0006a60b	6.10578e-40
127	0x00026709	2.20633e-40
128	0x0006358e	5.70225e-40
129	0x80016e9f	-1.31519e-40
130	0x80049f2d	-4.24443e-40
131	0x0006c465	6.21466e-40
132	0x80028aa2	-2.33403e-40
133	0x8005413e	-4.82582e-40
134	0x800145f4	-1.1693e-40
135	0x0001999d	1.46942e-40
136	0x00019fe0	1.49188e-40
137	0x00050601	4.61331e-40
138	0x80064106	-5.74339e-40
139	0x0001c542	1.62598e-40
140	0x8000f229	-8.687e-41
141	0x00001253	6.573e-42
142	0x00023c9c	2.05414e-40
143	0x8003cac9	-3.48252e-40
144	0x8006958b	-6.04659e-40
145	0x0005afac	5.22197e-40
146	0x80068708	-5.99453e-40
147	0x0005c7d4	5.30862e-40
148	0x00058a22	5.0873e-40
149	0x8004befc	-4.35854e-40
150	0x800645c6	-5.76043e-40
151	0x8006cb73	-6.23997e-40
152	0x800049ea	-2.6515e-41
153	0x8003859d	-3.23438e-40
154	0x800679b4	-5.94672e-40
155	0x8004930c	-4.20092e-40
156	0x8004b2ef	-4.31531e-40
157	0x8000502d	-2.8762e-41
158	0x00055cf7	4.92527e-40
159	0x80004992	-2.6392e-41
160	0x8001b599	-1.5698e-40
161	0x8004365f	-3.86847e-40
162	0x8006c56d	-6.21836e-40
163	0x800261c8	-2.18748e-40
164	0x8000d1b7	-7.5232e-41
165	0x80049532	-4.20863e-40
166	0x00025b1c	2.16355e-40
167	0x0003856c	3.23369e-40
168	0x800078dd	-4.3358e-41
169	0x00041743	3.75687e-40
170	0x000632b6	5.69205e-40
171	0x8000207b	-1.1652e-41
172	0x0002d4cd	2.6001e-40
173	0x8001281b	-1.06223e-40
174	0x8002f831	-2.72705e-40
175	0x0002c588	2.54532e-40
176	0x0002b741	2.4941e-40
177	0x800570f2	-4.99695e-40
178	0x0000ad08	6.2072e-41
179	0x0002098c	1.87096e-40
180	0x00018a52	1.41455e-40
181	0x8005819b	-5.05671e-40
182	0x800254ef	-2.1414e-40
183	0x800119b6	-1.01059e-40
184	0x8002ada0	-2.45956e-40
185	0x0001e924	1.7547e-40
186	0x000343ad	2.99784e-40
187	0x8000c37e	-7.013e-41
188	0x8005f084	-5.45458e-40
189	0x80047d67	-4.12328e-40
190	0x0001015f	9.2327e-41
191	0x8000693c	-3.7751e-41
192	0x000069d2	3.7961e-41
193	0x8002f589	-2.71752e-40
194	0x800532f0	-4.7745e-40
195	0x8001e96a	-1.75569e-40
196	0x8003ced7	-3.49707e-40
197	0x8003b338	-3.39798e-40
198	0x00063471	5.69825e-40
199	0x0006a17a	6.0894e-40
200	0x00004550	2.4865e-41
201	0x0004302b	3.84621e-40
202	0x8006f649	-6.39363e-40
203	0x80043f92	-3.90147e-40
204	0x0004e047	4.47798e-40
205	0x0000e230	8.1141e-41
206	0x80012e87	-1.08526e-40
207	0x800477d5	-4.1033e-40
208	0x8002cdc9	-2.57493e-40
209	0x00026b9b	2.22273e-40
210	0x00052c05	4.74969e-40
211	0x8005f70d	-5.47803e-40
212	0x80042a12	-3.82434e-40
213	0x000551d4	4.88532e-40
214	0x80058d56	-5.09879e-40
215	0x000310e7	2.8157e-40
216	0x8005ca45	-5.31738e-40
217	0x8002b3f5	-2.48227e-40
218	0x0006b7f5	6.17004e-40
219	0x0006258a	5.6448e-40
220	0x00003f60	2.2735e-41
221	0x000334fc	2.94514e-40
222	0x00036d75	3.14772e-40
223	0x80016b36	-1.30296e-40
224	0x0002957e	2.37299e-40
225	0x800612d9	-5.57774e-40
226	0x0006ca46	6.23575e-40
227	0x00012924	1.06594e-40
228	0x800150c8	-1.20814e-40
229	0x80021598	-1.91417e-40
230	0x0000ab6f	6.1499e-41
231	0x800575a6	-5.01382e-40
232	0x80028666	-2.31884e-40
233	0x800177c9	-1.34806e-40
234	0x00059cb8	5.15398e-40
235	0x8001b522	-1.56814e-40
236	0x800394eb	-3.28928e-40
237	0x00037b79	3.198e-40
238	0x8000c731	-7.1456e-41
239	0x80022960	-1.98514e-40
240	0x80018dec	-1.42747e-40
241	0x00055b41	4.91913e-40
242	0x00049c52	4.23419e-40
243	0x00028449	2.31126e-40
244	0x00047d8d	4.12381e-40
245	0x800361e5	-3.10624e-40
246	0x800163f7	-1.27696e-40
247	0x0002401e	2.06672e-40
248	0x00007c86	4.467e-41
249	0x8004b2bc	-4.3146e-40
250	0x0005c9e4	5.31602e-40
251	0x80045fab	-4.01661e-40
252	0x0003fef3	3.66965e-40
253	0x80051d2e	-4.69645e-40
254	0x8000ca00	-7.2464e-41
255	0x00061fcc	5.6242e-40

bias_ih_l0 f4 [128]
0	0x3e6f1025	0.23346002
1	0xbc9364e2	-0.01799244
2	0xbb18fc6f	-0.0023343822
3	0x3da6ea54	0.08150163
4	0xbcf6729d	-0.030083949
5	0x3e67e3ba	0.22645465
6	0x3e4a2a68	0.19742739
7	0x3d423809	0.04741672
8	0x3e805a07	0.25068685
9	0xbd091a99	-0.03347263
10	0x3e2b702e	0.16742012
11	0xbc867d7a	-0.016417254
12	0x3db2a29c	0.087224215
13	0xbd8fb319	-0.07016582
14	0xbd23dd63	-0.040006053
15	0x3e18740c	0.14888018
16	0xbcf0a163	-0.02937383
17	0x3e16d71f	0.147305
18	0x3ccec7e0	0.025241792
19	0xbd46dd79	-0.048551057
20	0x3cbf7560	0.023371398
21	0x3e5663e5	0.20936544
22	0x3e5df81f	0.21676682
23	0x3dbc83c9	0.092048235
24	0x3db606ee	0.088880405
25	0x3e2ca2e6	0.16859016
26	0x3e0b3365	0.13593824
27	0xbca1a87e	-0.019733664
28	0x3e85452d	0.2602934
29	0xbb67621f	-0.0035306287
30	0x3e62a623	0.22133689
31	0xbcb57a3e	-0.022153016
32	0x00046977	4.05176e-40
33	0x8002ff3f	-2.75236e-40
34	0x80019dbf	-1.48424e-40
35	0x0003dd39	3.54866e-40
36	0x00046c47	4.06185e-40
37	0x00014d45	1.19555e-40
38	0x80036fe7	-3.1565e-40
39	0x80021948	-1.9274e-40
40	0x00023935	2.04193e-40
41	0x0000dbfb	7.8914e-41
42	0x80003b5b	-2.1293e-41
43	0x00003ae5	2.1127e-41
44	0x0002fd7b	2.74603e-40
45	0x80016e80	-1.31475e-40
46	0x80053e79	-4.81588e-40
47	0x00053f10	4.818e-40
48	0x80018970	-1.41139e-40
49	0x8004fdc5	-4.58377e-40
50	0x00003464	1.8794e-41
51	0x8004424e	-3.91128e-40
52	0x0001783c	1.34967e-40
53	0x0002132a	1.90546e-40
54	0x00005a3b	3.2369e-41
55	0x00041bbf	3.77295e-40
56	0x0002acf8	2.4572e-40
57	0x800559b9	-4.91364e-40
58	0x00001b05	9.693e-42
59	0x0006c7fb	6.22752e-40
60	0x0006fc44	6.41509e-40
61	0x8003d526	-3.5197e-40
62	0x00026c8e	2.22613e-40
63	0x0000eac5	8.422e-41
64	0xbbdd6ddc	-0.006757481
65	0xbb4c5b4e	-0.0031182352
66	0x3d20ea1c	0.039285764
67	0x3d5e69af	0.054300006
68	0xbd9c1e56	-0.076229736
69	0xbc8c8347	-0.017152442
70	0x3d0220d6	0.031769596
71	0xbd90ae18	-0.07064456
72	0x3df06a48	0.117390215
73	0xbc4e6a3b	-0.0125985695
74	0xbe063009	-0.13104261
75	0x3e1ab1ee	0.15106937
76	0x3e3f9557	0.18709312
77	0x3d557360	0.052111983
78	0xbe14a6e5	-0.1451679
79	0xbc99a9e9	-0.018757777
80	0x3e82a78c	0.25518453
81	0x3ddf5082	0.109040275
82	0xbc723555	-0.014783223
83	0x3cc893f5	0.024484614
84	0xbd288481	-0.04114199
85	0x3e2978a8	0.16549933
86	0xbdb04fdc	-0.08608982
87	0x3e211a79	0.15732755
88	0xbe535828	-0.20639098
89	0x3d7be609	0.061498675
90	0x3da4773b	0.08030554
91	0x3db706fa	0.089368775
92	0x3e0d6b9c	0.13810581
93	0x3df23a95	0.1182758
94	0x3ca7d493	0.020487105
95	0xbd0bb091	-0.034103934
96	0x3e59eae9	0.21281017
97	0x3deb2e28	0.11483413
98	0x3e0ae7d0	0.13564992
99	0xbd08970e	-0.033347182
100	0xbcfcc67d	-0.030856365
101	0x3d6383fe	0.0555458
102	0x3db0c201	0.08630753
103	0x3e48827d	0.19581027
104	0x3d76e0e2	0.06027306
105	0x3e52075f	0.20510624
106	0x3e4eceef	0.20196126
107	0xbd3de880	-0.046364307
108	0x3e02993c	0.12753767
109	0x3e09fba1	0.13474895
110	0x3de7f9fb	0.11326977
111	0x3e8ebee5	0.27880016
112	0x3c38b183	0.011272791
113	0x3e65c959	0.2244009
114	0xbdaddf03	-0.08489802
115	0xbd75289d	-0.059853185
116	0xbde95bc7	-0.11394458
117	0x3e88466a	0.26616222
118	0x3e740c63	0.2383285
119	0xbb4d5a1f	-0.0031334234
120	0x3d522db1	0.051313106
121	0x3dd1bd1c	0.10241148
122	0x3e15cdeb	0.14629333
123	0x3d4b7727	0.04967418
124	0x3d65ff8e	0.05615192
125	0x3e26945c	0.16267532
126	0x3e5b2d2e	0.21403953
127	0x3d3e8c18	0.046520323

bias_hh_l0 f4 [128]
0	0x3e86ddf6	0.26341218
1	0x3d9551ee	0.072910175
2	0xbd6f2466	-0.05838432
3	0x3e656666	0.22402343
4	0xbd377f91	-0.04479939
5	0x3c440759	0.011964642
6	0xbde2746c	-0.11057362
7	0xbd178a0b	-0.036996882
8	0x3d39cc20	0.045360684
9	0x3e422771	0.18960358
10	0x3da4093a	0.08009572
11	0x3dd959f3	0.106128596
12	0x3e3ba36f	0.18324064
13	0x3e2ca1e2	0.16858628
14	0xbd975bb8	-0.07390541
15	0x3e04d4e1	0.12971832
16	0x3e661677	0.22469507
17	0x3e649d9e	0.22325751
18	0xbd83cdd3	-0.06435742
19	0x3e13a727	0.14419232
20	0x3d50f212	0.051012106
21	0x3d84675f	0.06465029
22	0x3e231544	0.15926081
23	0x3e0fb768	0.14034808
24	0xbdde7f87	-0.10864168
25	0xbc6c3196	-0.014416119
26	0x3de67a3e	0.112537846
27	0x3cd2c792	0.025729928
28	0x3e823478	0.25430655
29	0xbc0ccb6e	-0.008593423
30	0x3e93b821	0.28851417
31	0x3e03f967	0.12888108
32	0x0002ac45	2.4547e-40
33	0x0004d624	4.44161e-40
34	0x0000173f	8.339e-42
35	0x8000aa18	-6.1018e-41
36	0x8000085d	-3e-42
37	0x80067637	-5.9342e-40
38	0x000413af	3.74403e-40
39	0x8000aacb	-6.1269e-41
40	0x00041bcb	3.77312e-40
41	0x8006fd48	-6.41873e-40
42	0x80049530	-4.2086e-40
43	0x0003c600	3.46536e-40
44	0x8001772d	-1.34588e-40
45	0x000543e8	4.83538e-40
46	0x000685ce	5.99013e-40
47	0x80046c79	-4.06255e-40
48	0x80041ac5	-3.76945e-40
49	0x000677f4	5.94044e-40
50	0x0000f704	8.8613e-41
51	0x8006b657	-6.16424e-40
52	0x800564b6	-4.95306e-40
53	0x80002007	-1.1489e-41
54	0x80051d7e	-4.69757e-40
55	0x00062ac9	5.66361e-40
56	0x00008e29	5.0997e-41
57	0x800646b4	-5.76376e-40
58	0x00012780	1.06005e-40
59	0x800224b7	-1.96842e-40
60	0x8004bb77	-4.34592e-40
61	0x000120d4	1.03612e-40
62	0x000331ca	2.93367e-40
63	0x8002d8ab	-2.61397e-40
64	0xbe0f9124	-0.1402021
65	0xbe5165bb	-0.20448963
66	0xbd8b5009	-0.06802375
67	0x3ddeedd7	0.10885208
68	0x3e171f9e	0.14758155
69	0xbdaadc78	-0.08342832
70	0xbd8365d3	-0.06415906
71	0x3d5342b0	0.05157727
72	0xbda328b8	-0.07966751
73	0x3bdad587	0.0066782865
74	0x3d1ad6fc	0.03780268
75	0x3e38b13c	0.1803636
76	0x3e3a1340	0.18171406
77	0xbd2fbeae	-0.042906456
78	0xbdec3715	-0.115339436
79	0x3a95a474	0.0011416809
80	0xbc6b64a6	-0.014367258
81	0xbcc32fcd	-0.023826504
82	0xbe091d81	-0.13390161
83	0x3e2ea3ed	0.1705472
84	0xbd70066f	-0.058599886
85	0x3e01793d	0.12643905
86	0x3e026d6d	0.12737055
87	0xbbbe07bf	-0.0057992633
88	0x3d9148e8	0.07093984
89	0xbd7df23d	-0.061998595
90	0x3e1e54bf	0.15462016
91	0xbe1193b9	-0.14216508
92	0x3d1c2d71	0.038129274
93	0xbd922419	-0.07135791
94	0x3c158f8b	0.009128462
95	0x3d8af708	0.06785399
96	0x3e85fdca	0.26170188
97	0x3e867810	0.26263475
98	0x3e06ea08	0.13175213
99	0x3ddf34eb	0.10898765
100	0xbd0b9e50	-0.034086525
101	0x3d992af2	0.07478894
102	0xbccc29f4	-0.024922349
103	0x3d45fc37	0.048336234
104	0x3cb9b329	0.022668438
105	0x3d71112b	0.058854263
106	0x3e38609b	0.18005602
107	0x3d7ee27c	0.06222771
108	0x3d1cff9f	0.038329717
109	0x3c14c9de	0.009081332
110	0xbde6744e	-0.11252652
111	0xbcb1a711	-0.021686109
112	0x3db544ce	0.08851014
113	0xbbcbd478	-0.0062203966
114	0x3d8dd794	0.06925884
115	0x3db89429	0.09012634
116	0xbc3f4a05	-0.0116753625
117	0xbc0207e1	-0.007936449
118	0x3e1179b9	0.1420659
119	0x3dc67361	0.096899755
120	0x3da91590	0.08256066
121	0x3dcdaef7	0.100431375
122	0xbda42e9e	-0.08016704
123	0x3e3abb92	0.18235615
124	0x3db2e852	0.08735718
125	0x3dae9b16	0.08525674
126	0x3d0f628c	0.03500609
127	0x3deee45e	0.11664651

weight_ih_l0_reverse f4 [128, 5]
0	0x3e4cfcff	0.20018385
1	0x3cf3d184	0.02976299
2	0xbd93e502	-0.07221414
3	0xbe2c5a5d	-0.16831346
4	0x3e871884	0.2638589
5	0x3d33bae5	0.04387941
6	0xbd2b7bb1	-0.04186601
7	0xbe5aea32	-0.21378401
8	0xbd8a3aa0	-0.06749463
9	0x3e08b4ec	0.13350266
10	0x3dd9a2ae	0.10626732
11	0x3e0ffc67	0.14061128
12	0xbe952da3	-0.2913638
13	0xbe25f2b0	-0.16205859
14	0x3e95a29d	0.29225627
15	0xbb377d17	-0.0027998143
16	0x3c0b9d70	0.008521423
17	0x3d42a1d3	0.04751761
18	0xbd41634f	-0.04721385
19	0x3dfc8e84	0.1233187
20	0x3e16684c	0.14688224
21	0x3a5a9a3b	0.0008339022
22	0x3de5ad27	0.11214667
23	0x3da69863	0.08134534
24	0x3de595ca	0.112102106
25	0x3e561104	0.20904928
26	0xbe480e00	-0.1953659
27	0x3f0044ab	0.5010478
28	0x3edd6466	0.4324066
29	0x3de22cb5	0.110436834
30	0x3dd9d7e6	0.106368825
31	0x3e14a04b	0.14514272
32	0xbdca1c4a	-0.09868677
33	0xbe38ef55	-0.18060048
34	0x3e86a47b	0.26297364
35	0x3da78841	0.08180285
36	0xbdc6a78c	-0.09699926
37	0x3cda6158	0.026657745
38	0xbe7d34b6	-0.24727139
39	0x3e05ab40	0.13053608
40	0xbd2fe440	-0.042942286
41	0x3d2dc743	0.04242636
42	0x3e8b27da	0.27178842
43	0x3e493d47	0.19652282
44	0x3e503529	0.20332779
45	0xbd782783	-0.060584556
46	0xbc934d43	-0.017981177
47	0x3dfed2fb	0.12442585
48	0x3b8f3829	0.0043707085
49	0x3e60080b	0.21878068
50	0x3e01d2ca	0.12678066
51	0x3b9481ee	0.0045320904
52	0x3e88c424	0.26712143
53	0x3e932c4e	0.2874474
54	0x3e1c2183	0.15247159
55	0x3d8993d3	0.06717648
56	0xbc583d61	-0.013198228
57	0x3dd11d61	0.10210682
58	0x3b3c7469	0.002875591
59	0xbc42f634	-0.01189952
60	0x3d0244c8	0.031803876
61	0xbc0a1704	-0.008428339
62	0x3f0abec0	0.5419731
63	0x3ecea69a	0.40361482
64	0x3da0adf4	0.07845679
65	0x3e514b1d	0.2043881
66	0xbdc2a173	-0.0950345
67	0xbe9b71e8	-0.3036034
68	0xbe915171	-0.28382447
69	0x3e6c07cc	0.2304985
70	0x3e1e550e	0.15462133
71	0xbcb4c8ff	-0.022068499
72	0xbe9d9a63	-0.3078185
73	0xbd9aa646	-0.075512454
74	0x3e815bd5	0.25265375
75	0x3e65bdc5	0.22435673
76	0x3de9b062	0.114105955
77	0xbea97bc7	-0.33102247
78	0xbd897119	-0.06711025
79	0x3e04fc94	0.12986976
80	0x3d8da7cf	0.069167726
81	0xb92eaff9	-0.00016659488
82	0x3e0aad40	0.13542652
83	0xbd7fff46	-0.062499307
84	0xbda2d8ec	-0.07951531
85	0x3e7e8d3f	0.24858569
86	0x3e271cf5	0.1631964
87	0x3bb5aa85	0.005544009
88	0x3ea15699	0.3151138
89	0x3cb31f10	0.021865398
90	0x3e3b3245	0.18280895
91	0x3e64211c	0.22278255
92	0xbd8a0620	-0.067394495
93	0xbe3ab051	-0.18231322
94	0x3e3cae85	0.18425949
95	0x3e6c6ac7	0.23087607
96	0xbd14fdbc	-0.036374792
97	0x3e848172	0.2588001
98	0x3dfc4d86	0.12319474
99	0x3e32e4d2	0.174701
100	0x3c8bd320	0.017068446
101	0x3dbfd8fb	0.093675576
102	0x3ec02adf	0.37532708
103	0x3e76af21	0.24090244
104	0x3eae51a6	0.34046668
105	0x3d91e0d9	0.071229644
106	0xbd2a26ed	-0.04154103
107	0x3ebbe413	0.36697444
108	0x3f0523b6	0.52007616
109	0x3d106272	0.035250135
110	0xbd2935a8	-0.041310936
111	0x3e3dad65	0.18523176
112	0x3ed10437	0.40823528
113	0x3ee331c4	0.44373906
114	0x3e04e7de	0.12979075
115	0x3cbecf64	0.02329225
116	0xbccef7d7	-0.025264664
117	0x3c42f14e	0.011898352
118	0x3aa6c9ba	0.0012724914
119	0x3d634158	0.05548224
120	0x3d0962f1	0.033541624
121	0xbce9c944	-0.028538354
122	0xbe172839	-0.14761437
123	0x3d83f2fb	0.06442829
124	0x3cbeff3c	0.023315065
125	0x3df14af2	0.11781873
126	0x3d1928b7	0.037392344
127	0x3c991c57	0.018690271
128	0xbd9ae94a	-0.075640276
129	0x3d7095c8	0.058736593
130	0x3e19965c	0.14998764
131	0x3e04a790	0.12954545
132	0x3ea3dc13	0.3200384
133	0x3e179c26	0.1480566
134	0x3e2921d0	0.16516805
135	0x3e5851a3	0.21124892
136	0x3e29a2b7	0.16565977
137	0x3e0f0dd4	0.13970119
138	0xbdb9f9a2	-0.09080817
139	0xbc135d17	-0.008994362
140	0x3e2d3133	0.169133
141	0xbcfa4fb5	-0.030555585
142	0xbd97d10a	-0.07412918
143	0x3e8bbb03	0.27291116
144	0x3ddf0f97	0.108916454
145	0x3c2b8ee2	0.010471078
146	0x3db5ba34	0.08873406
147	0x3e2087a3	0.15676741
148	0x3d52709e	0.05137693
149	0xba41b45f	-0.0007389243
150	0x3e73afea	0.23797575
151	0x3d91b044	0.07113698
152	0xbebeb0f2	-0.37244374
153	0xbdc6b3a8	-0.097022355
154	0x3e83664a	0.25663978
155	0x3e4d325b	0.2003874
156	0x3d90e038	0.07074016
157	0x3e6cabb8	0.2311238
158	0x3ec78bc7	0.3897383
159	0x3e5d6f01	0.21624376
160	0x0002c170	2.53063e-40
161	0x8001abbf	-1.53446e-40
162	0x0003bda4	3.43537e-40
163	0x8004b6cf	-4.32921e-40
164	0x80011c2d	-1.01943e-40
165	0x800225c6	-1.97222e-40
166	0x80047a2c	-4.11169e-40
167	0x8001f715	-1.80472e-40
168	0x8005e04d	-5.39641e-40
169	0x00052699	4.73024e-40
170	0x0004f36f	4.5467e-40
171	0x80020eb1	-1.88941e-40
172	0x000175b1	1.34055e-40
173	0x80010749	-9.4449e-41
174	0x00030633	2.7773e-40
175	0x800074a7	-4.1847e-41
176	0x800471a0	-4.08103e-40
177	0x80004420	-2.4439e-41
178	0x8001d388	-1.67719e-40
179	0x0001beaa	1.60233e-40
180	0x0005aced	5.21212e-40
181	0x000522ea	4.71702e-40
182	0x00050f3d	4.64644e-40
183	0x0003e977	3.59258e-40
184	0x0003bd67	3.43451e-40
185	0x0001ff1a	1.83349e-40
186	0x8001525a	-1.21378e-40
187	0x80045370	-3.97274e-40
188	0x00015188	1.21083e-40
189	0x8001d51b	-1.68283e-40
190	0x00031c00	2.85551e-40
191	0x0005514d	4.88343e-40
192	0x0003b96e	3.42026e-40
193	0x80001fb0	-1.1367e-41
194	0x800121fa	-1.04024e-40
195	0x00058df3	5.10099e-40
196	0x0006e7e4	6.342e-40
197	0x0004621b	4.02536e-40
198	0x00040a2f	3.70995e-40
199	0x00010ee2	9.7174e-41
200	0x0006c33c	6.2105e-40
201	0x00012fbf	1.08964e-40
202	0x00058812	5.0799e-40
203	0x000258ac	2.1548e-40
204	0x0006a506	6.10212e-40
205	0x000576df	5.0182e-40
206	0x00019084	1.43678e-40
207	0x8002afd0	-2.4674e-40
208	0x8002f2a7	-2.70718e-40
209	0x8005550c	-4.89687e-40
210	0x8000e0bb	-8.0618e-41
211	0x8006fbd7	-6.41356e-40
212	0x00024f42	2.12103e-40
213	0x00050006	4.59186e-40
214	0x000334c7	2.9444e-40
215	0x00019274	1.44373e-40
216	0x8005c25a	-5.28898e-40
217	0x00002ea2	1.6729e-41
218	0x0000c78a	7.1581e-41
219	0x0006f05f	6.37242e-40
220	0x00024b0b	2.10591e-40
221	0x8004a673	-4.27053e-40
222	0x00009362	5.2871e-41
223	0x00017bd5	1.36258e-40
224	0x8000010c	-3.76e-43
225	0x00013115	1.09443e-40
226	0x800413e0	-3.74472e-40
227	0x80035d90	-3.0907e-40
228	0x80038fb8	-3.27063e-40
229	0x0001d1e1	1.67126e-40
230	0x0001f811	1.80825e-40
231	0x00039540	3.29047e-40
232	0x00060fbb	5.56656e-40
233	0x000306bd	2.77924e-40
234	0x000160d8	1.26576e-40
235	0x800525cd	-4.72738e-40
236	0x0005f673	5.47587e-40
237	0x80028f0c	-2.34987e-40
238	0x00035550	3.06111e-40
239	0x80042de6	-3.83807e-40
240	0x00068791	5.99645e-40
241	0x00040997	3.70782e-40
242	0x80033f1e	-2.98149e-40
243	0x00050406	4.60621e-40
244	0x8002a33c	-2.42228e-40
245	0x0005f721	5.4783e-40
246	0x80007d17	-4.4874e-41
247	0x80009a8c	-5.5441e-41
248	0x0005d7c4	5.3658e-40
249	0x000049bf	2.6455e-41
250	0x8006869c	-5.99302e-40
251	0x0003c6a9	3.46772e-40
252	0x8000af88	-6.2969e-41
253	0x000155c1	1.22598e-40
254	0x00054142	4.82588e-40
255	0x00001007	5.75e-42

weight_hh_l0_reverse f4 [128, 32]
0	0x800152e8	-1.21577e-40
1	0x8000a6e1	-5.9865e-41
2	0x80045651	-3.98306e-40
3	0x0000daaf	7.8449e-41
4	0x80056d45	-4.98376e-40
5	0x00024507	2.08433e-40
6	0x8005510c	-4.88252e-40
7	0x0004c8a2	4.39315e-40
8	0x00027d0d	2.28531e-40
9	0x8004efa6	-4.53312e-40
10	0x0000a4f9	5.9181e-41
11	0x0000a50c	5.9208e-41
12	0x8003276d	-2.8965e-40
13	0x80049dcc	-4.23949e-40
14	0x0001829d	1.38691e-40
15	0x00047ed5	4.12841e-40
16	0x80057bf3	-5.03642e-40
17	0x000102f4	9.2895e-41
18	0x00032707	2.89507e-40
19	0x0005522e	4.88658e-40
20	0x0000a230	5.8182e-41
21	0x8001e091	-1.72395e-40
22	0x0002b0a5	2.47039e-40
23	0x8002a5ef	-2.43197e-40
24	0x0002fffd	2.75502e-40
25	0x8000863f	-4.8158e-41
26	0x8002a526	-2.42915e-40
27	0x00006f18	3.9853e-41
28	0x000652b4	5.80681e-40
29	0x80017122	-1.3242e-40
30	0x8005364b	-4.78654e-40
31	0x80019b66	-1.47582e-40
32	0x0001ae7c	1.54429e-40
33	0x80010cc1	-9.6411e-41
34	0x000258d7	2.15541e-40
35	0x000606a4	5.53395e-40
36	0x80048702	-4.15774e-40
37	0x8006a5f9	-6.10553e-40
38	0x0004e7fe	4.50565e-40
39	0x80013369	-1.10278e-40
40	0x00002ed7	1.6803e-41
41	0x800673fe	-5.92623e-40
42	0x00048a0f	4.16868e-40
43	0x00004fcc	2.8626e-41
44	0x800206c2	-1.86095e-40
45	0x8003f0e6	-3.61925e-40
46	0x0002647b	2.19717e-40
47	0x8002530c	-2.13463e-40
48	0x000485ec	4.15384e-40
49	0x8006ffba	-6.4275e-40
50	0x80021187	-1.89959e-40
51	0x0003b258	3.39484e-40
52	0x8006f456	-6.38664e-40
53	0x80059861	-5.13841e-40
54	0x00009cea	5.629e-41
55	0x8001de8b	-1.71669e-40
56	0x00066b4d	5.89505e-40
57	0x0002d76d	2.60951e-40
58	0x8004322a	-3.85337e-40
59	0x00001748	8.352e-42
60	0x8000bd47	-6.79e-41
61	0x8004a50d	-4.26551e-40
62	0x8003a0e6	-3.33226e-40
63	0x00013495	1.10698e-40
64	0x8000481e	-2.5871e-41
65	0x0003afc3	3.38558e-40
66	0x8006d3e0	-6.2702e-40
67	0x00015c6b	1.24989e-40
68	0x00052c87	4.75151e-40
69	0x0005e92d	5.42825e-40
70	0x80031dc7	-2.86189e-40
71	0x0004b254	4.31314e-40
72	0x80028563	-2.31521e-40
73	0x0003f659	3.6388e-40
74	0x00031d16	2.8594e-40
75	0x00016cf9	1.30928e-40
76	0x0003c49f	3.46041e-40
77	0x8000157b	-7.706e-42
78	0x00011bf6	1.01866e-40
79	0x000307a0	2.78242e-40
80	0x8006fa31	-6.40765e-40
81	0x00043d33	3.89296e-40
82	0x80009260	-5.251e-41
83	0x000319bd	2.8474e-40
84	0x000421c7	3.79459e-40
85	0x80000d4f	-4.774e-42
86	0x8006921b	-6.03426e-40
87	0x80008aa5	-4.9736e-41
88	0x80002b3f	-1.5514e-41
89	0x8003e6dc	-3.58323e-40
90	0x80018e28	-1.42832e-40
91	0x80011968	-1.0095e-40
92	0x0003814f	3.21894e-40
93	0x8003f917	-3.64863e-40
94	0x0002eb76	2.68138e-40
95	0x8002e182	-2.64568e-40
96	0x00029220	2.36091e-40
97	0x800703f6	-6.4427e-40
98	0x800627a7	-5.65238e-40
99	0x80050e22	-4.64247e-40
100	0x00069196	6.0324e-40
101	0x8004d7bc	-4.44733e-40
102	0x00020046	1.83769e-40
103	0x0000058a	1.987e-42
104	0x0002807a	2.2976e-40
105	0x80008451	-4.7466e-41
106	0x0002cc41	2.56943e-40
107	0x0000a51b	5.9229e-41
108	0x8004f3b8	-4.54772e-40
109	0x8002a6ea	-2.43548e-40
110	0x80016a1e	-1.29903e-40
111	0x80005a2d	-3.2349e-41
112	0x0007007a	6.4302e-40
113	0x0003680e	3.12834e-40
114	0x80044901	-3.93531e-40
115	0x8006e391	-6.32648e-40
116	0x80058057	-5.05217e-40
117	0x80049580	-4.20972e-40
118	0x8000d6c3	-7.7042e-41
119	0x0004a7bb	4.27512e-40
120	0x00030de9	2.80497e-40
121	0x800234ea	-2.02653e-40
122	0x000665e9	5.87571e-40
123	0x80007f53	-4.5675e-41
124	0x8002c60f	-2.54721e-40
125	0x00065fc1	5.85363e-40
126	0x00034cf0	3.03106e-40
127	0x00058a5a	5.08809e-40
128	0x8000837f	-4.7172e-41
129	0x80012ba3	-1.0749e-40
130	0x800687e0	-5.99756e-40
131	0x800511bc	-4.6554e-40
132	0x0004b4c6	4.32191e-40
133	0x80017916	-1.35273e-40
134	0x80066b16	-5.89428e-40
135	0x00064f26	5.79406e-40
136	0x80067661	-5.9348e-40
137	0x80057493	-5.00996e-40
138	0x80028b06	-2.33543e-40
139	0x00070040	6.42938e-40
140	0x8001d12d	-1.66874e-40
141	0x00034b6d	3.02564e-40
142	0x0002bc3a	2.51194e-40
143	0x8004d44f	-4.43504e-40
144	0x0003cd94	3.49254e-40
145	0x00005a79	3.2455e-41
146	0x0006eca0	6.35898e-40
147	0x00026a3d	2.21782e-40
148	0x800562da	-4.94639e-40
149	0x0001401f	1.14838e-40
150	0x800313ea	-2.8265e-40
151	0x80030149	-2.75968e-40
152	0x80003132	-1.7648e-41
153	0x0002299c	1.98598e-40
154	0x000379c4	3.19188e-40
155	0x0001e77d	1.74878e-40
156	0x80049255	-4.19836e-40
157	0x8000b555	-6.505e-41
158	0x000131f5	1.09757e-40
159	0x00023a12	2.04503e-40
160	0x80063078	-5.684e-40
161	0x80024fc2	-2.12283e-40
162	0x0000b6f0	6.5626e-41
163	0x80068624	-5.99134e-40
164	0x0005bc1f	5.26663e-40
165	0x0006fcb7	6.4167e-40
166	0x8005c21a	-5.28808e-40
167	0x8002d0b0	-2.58534e-40
168	0x00003b5b	2.1293e-41
169	0x80061cab	-5.61297e-40
170	0x00024dde	2.11604e-40
171	0x0004b07f	4.30657e-40
172	0x0000064c	2.259e-42
173	0x0004a412	4.262e-40
174	0x8003f37c	-3.62852e-40
175	0x8002bfbc	-2.52452e-40
176	0x00065081	5.79892e-40
177	0x0002253b	1.97027e-40
178	0x8001d196	-1.67021e-40
179	0x8006f6e6	-6.39583e-40
180	0x8002b0e8	-2.47133e-40
181	0x0001cca0	1.65241e-40
182	0x00049f9b	4.24598e-40
183	0x8004b314	-4.31583e-40
184	0x000631b4	5.68843e-40
185	0x0005535a	4.89078e-40
186	0x000619a0	5.60205e-40
187	0x0006d1ef	6.26323e-40
188	0x00026312	2.19211e-40
189	0x000621df	5.63164e-40
190	0x00013d9e	1.1394e-40
191	0x8005e932	-5.42832e-40
192	0x8005025f	-4.60028e-40
193	0x8004d79e	-4.44691e-40
194	0x0003b155	3.39121e-40
195	0x800165ea	-1.28395e-40
196	0x8003e3d1	-3.57232e-40
197	0x8005e403	-5.40973e-40
198	0x8000528e	-2.9615e-41
199	0x00028aac	2.33417e-40
200	0x800351ed	-3.04896e-40
201	0x80032ace	-2.90862e-40
202	0x000575c7	5.01428e-40
203	0x0006b3c8	6.15506e-40
204	0x800183a9	-1.39066e-40
205	0x8005358a	-4.78384e-40
206	0x00020de7	1.88658e-40
207	0x00015116	1.20924e-40
208	0x8004e24f	-4.48526e-40
209	0x80000ed7	-5.324e-42
210	0x00018117	1.38144e-40
211	0x80052fad	-4.7628e-40
212	0x0000a37a	5.8644e-41
213	0x80016157	-1.26754e-40
214	0x0005a729	5.19143e-40
215	0x8003915b	-3.2765e-40
216	0x8003d444	-3.51653e-40
217	0x8000c1ae	-6.9479e-41
218	0x0000c34e	7.0062e-41
219	0x00061a54	5.60458e-40
220	0x80000090	-2.02e-43
221	0x8002d80e	-2.61177e-40
222	0x80053196	-4.76966e-40
223	0x8004055f	-3.69269e-40
224	0x0006b187	6.14698e-40
225	0x80041238	-3.73878e-40
226	0x8004158b	-3.7507e-40
227	0x80057b45	-5.03398e-40
228	0x00065ad3	5.83595e-40
229	0x80005729	-3.1267e-41
230	0x0002f654	2.72037e-40
231	0x8001e729	-1.7476e-40
232	0x0002588f	2.1544e-40
233	0x8006d18e	-6.26187e-40
234	0x00003906	2.0456e-41
235	0x80016552	-1.28182e-40
236	0x8004f9cb	-4.56951e-40
237	0x00031382	2.82505e-40
238	0x0001ac7e	1.53714e-40
239	0x8000946e	-5.3247e-41
240	0x00009acb	5.5529e-41
241	0x8006f10b	-6.37483e-40
242	0x00007b38	4.4203e-41
243	0x80050adc	-4.63073e-40
244	0x0004224b	3.79644e-40
245	0x80041c49	-3.77489e-40
246	0x0006f9f4	6.40679e-40
247	0x00060c17	5.5535e-40
248	0x00011ce0	1.02194e-40
249	0x80044c14	-3.94634e-40
250	0x00033dfd	2.97744e-40
251	0x00009b9c	5.5822e-41
252	0x00051ecf	4.7023e-40
253	0x8002a5d9	-2.43166e-40
254	0x80008b75	-5.0028e-41
255	0x000001ce	6.47e-43

bias_ih_l0_reverse f4 [128]
0	0x3e5e4694	0.21706611
1	0xbdc096ee	-0.094037876
2	0x3e56c4d2	0.20973518
3	0x3dca4721	0.09876848
4	0xbd91e18d	-0.071230985
5	0x3cd51c3b	0.026014438
6	0x3d8cca34	0.06874505
7	0xbd258be6	-0.04041662
8	0x3d7d3844	0.061821237
9	0x3d92526e	0.071446285
10	0x3d5f37a2	0.054496415
11	0xbc4f37df	-0.012647598
12	0x3d9c6c57	0.07637852
13	0x3e4d9053	0.20074587
14	0x3c89b730	0.016810983
15	0xbcb4a857	-0.022052927
16	0x3e1e97fa	0.15487662
17	0x3e8ea100	0.27857208
18	0x3e903508	0.2816546
19	0x3cb0c92c	0.021580301
20	0xbdb18159	-0.08667249
21	0x3e22a782	0.15884212
22	0xbba1c565	-0.0049368613
23	0xbdb547d7	-0.08851593
24	0x3df37188	0.11886889
25	0x3e1e2a22	0.1544576
26	0x3d5cbcb0	0.053890884
27	0x3e73e645	0.2381831
28	0x3e2f32dc	0.17109245
29	0x3e01f598	0.12691343
30	0x3df9db7e	0.12200068
31	0x3def3166	0.11679344
32	0x8002db24	-2.62284e-40
33	0x00062ad1	5.66373e-40
34	0x80032061	-2.87122e-40
35	0x80052d79	-4.7549e-40
36	0x80059b25	-5.14833e-40
37	0x80011327	-9.8706e-41
38	0x0006e81b	6.34277e-40
39	0x00070045	6.42945e-40
40	0x0005a978	5.19971e-40
41	0x80029b88	-2.39465e-40
42	0x8001c9fc	-1.64294e-40
43	0x00066a3f	5.89127e-40
44	0x80067597	-5.93196e-40
45	0x80058662	-5.07385e-40
46	0x0003984d	3.30142e-40
47	0x0003cb7a	3.485e-40
48	0x0005e6fa	5.42036e-40
49	0x0003c6c8	3.46816e-40
50	0x000302f8	2.76571e-40
51	0x00049552	4.20908e-40
52	0x000110b4	9.7827e-41
53	0x0004cd78	4.4105e-40
54	0x000662b8	5.86427e-40
55	0x0005d2b5	5.34765e-40
56	0x0005b21c	5.23071e-40
57	0x0002adbf	2.46e-40
58	0x00042f50	3.84315e-40
59	0x0002fb89	2.73905e-40
60	0x80025009	-2.12382e-40
61	0x800030e2	-1.7536e-41
62	0x80027a0d	-2.27455e-40
63	0x8002cb6d	-2.56646e-40
64	0xbe03d25f	-0.12873219
65	0xbdc6bebb	-0.09704348
66	0x3d7c4ca7	0.06159654
67	0x3d986421	0.07440973
68	0xbaa2159f	-0.0012366063
69	0x3df4b555	0.11948649
70	0x3d2a79d4	0.04162009
71	0x3dbba291	0.091618665
72	0x3dc05e70	0.093930125
73	0xbdda3f59	-0.10656614
74	0xbde6c4f5	-0.11268035
75	0xbc97cb69	-0.01852961
76	0x3d4041d9	0.046937797
77	0xbc4f54e0	-0.012654513
78	0xbd70d647	-0.0587981
79	0xbe3bde86	-0.18346605
80	0xbe081a49	-0.13291277
81	0x3e4cb7bf	0.19991969
82	0x3e6fa695	0.2340339
83	0x3ddc00f5	0.1074237
84	0xbd6be14d	-0.05758791
85	0xb9c49dcf	-0.0003750161
86	0x3ded20d4	0.11578527
87	0xbdeebd0f	-0.11657154
88	0xbe169449	-0.14705004
89	0xbe1b59fe	-0.15171048
90	0x3de9b7bb	0.11411997
91	0x3da4ae8b	0.08041104
92	0x3dac72ee	0.084203586
93	0xbcd65bed	-0.02616688
94	0xbe168e24	-0.1470266
95	0xbd3ffdab	-0.046872776
96	0x3e42b381	0.19013788
97	0x3da9d59c	0.08292696
98	0x3de5035f	0.111822836
99	0xbe05ac70	-0.13054061
100	0xbd917433	-0.07102241
101	0x3d906f58	0.07052487
102	0x3c0f1ca9	0.00873486
103	0x3e10ab83	0.14127927
104	0xba568aed	-0.00081841537
105	0x3e3ae8c1	0.18252851
106	0x3ddba5f4	0.107250124
107	0x3c89b2bd	0.016808862
108	0x3e3a49a6	0.18192157
109	0x3e5117d0	0.2041924
110	0x3d28bee2	0.041197665
111	0x3d1f2622	0.038854726
112	0x3e4368be	0.19082925
113	0x3e9f9d5d	0.31174746
114	0x3de904eb	0.11377891
115	0x3d094274	0.03351064
116	0x3e365cff	0.17808913
117	0x3e53482a	0.20632997
118	0xbcd48e18	-0.025946662
119	0xbd70b9cf	-0.05877095
120	0x3e00f611	0.12593867
121	0x3dbf6944	0.0934625
122	0xbce3fada	-0.027829576
123	0x3d80b078	0.06283659
124	0x3d213d0b	0.039364856
125	0x3e18ffe5	0.14941366
126	0x3c8f18d5	0.017467896
127	0xbdaaed6d	-0.083460666

bias_hh_l0_reverse f4 [128]
0	0x3de2b606	0.110698745
1	0x3e322306	0.17396173
2	0x3d9543df	0.07288336
3	0x3d19aaa6	0.03751626
4	0x3df11d9c	0.11773226
5	0x3e5574d8	0.20845354
6	0xbb08bb23	-0.0020863495
7	0x3dba96b1	0.09110773
8	0xbd1426b4	-0.036169723
9	0xbc156d4d	-0.009120298
10	0x3e6b17e5	0.22958334
11	0xbda33b16	-0.07970254
12	0x3dbb9908	0.09160048
13	0xbd444cd1	-0.04792482
14	0x3e571ed9	0.21007861
15	0x3e5c1dfa	0.2149581
16	0x3bef462a	0.0073020654
17	0x3e53371d	0.20626493
18	0x3ca3eee1	0.020011367
19	0xbcd4bbf6	-0.025968533
20	0x3d885376	0.06656544
21	0x3d0397ad	0.03212707
22	0xbd5ce765	-0.053931613
23	0xbdc8a48a	-0.09797008
24	0x3e018d0f	0.12651466
25	0x3dfbb9ce	0.12291299
26	0x3e591266	0.21198425
27	0x3d6f6615	0.058446962
28	0x3de49130	0.11160505
29	0x3e1fcc4a	0.15605274
30	0x3e16d12c	0.1472823
31	0x3e50da0b	0.20395677
32	0x8002007c	-1.83845e-40
33	0x8006b4d8	-6.15887e-40
34	0x000007c7	2.79e-42
35	0x80022204	-1.95873e-40
36	0x0004b303	4.31559e-40
37	0x00049027	4.19054e-40
38	0x80060c79	-5.55487e-40
39	0x8000c06f	-6.9032e-41
40	0x00043cc6	3.89143e-40
41	0x000268f7	2.21325e-40
42	0x00014e8b	1.20011e-40
43	0x0001b987	1.5839e-40
44	0x8005b29e	-5.23253e-40
45	0x8006f42f	-6.3861e-40
46	0x00003540	1.9103e-41
47	0x0003ee71	3.61043e-40
48	0x0006ce12	6.24937e-40
49	0x80025db8	-2.17291e-40
50	0x80055a9e	-4.91685e-40
51	0x00030c0b	2.79827e-40
52	0x00059703	5.1335e-40
53	0x000078c5	4.3324e-41
54	0x8000c892	-7.1951e-41
55	0x800388c7	-3.24573e-40
56	0x8000f0dd	-8.6405e-41
57	0x0000c780	7.1567e-41
58	0x00027000	2.23849e-40
59	0x000484b1	4.14943e-40
60	0x00027b95	2.28004e-40
61	0x00041af3	3.7701e-40
62	0x00007328	4.131e-41
63	0x00038371	3.22659e-40
64	0x3e054343	0.1301394
65	0x3d0914a1	0.03346694
66	0xbbdac774	-0.0066766087
67	0xbd1c39fc	-0.038141236
68	0xbd83a910	-0.064287305
69	0xbe36ca2d	-0.17850561
70	0xbd9943c3	-0.07483628
71	0xbe0a1e79	-0.13488187
72	0xbd53f3f4	-0.051746324
73	0x3d707441	0.05870462
74	0x3d8e2357	0.06940334
75	0x3d9693f8	0.073524415
76	0x3d04551b	0.032307725
77	0x3e19a1e4	0.15003163
78	0x3e52f315	0.20600541
79	0xbd9b7da9	-0.07592327
80	0xbda25102	-0.07925607
81	0x3d8e989c	0.06962702
82	0x3da50f60	0.08059573
83	0xba174a8a	-0.00057713
84	0xbdd32f31	-0.103117354
85	0xbdbcbdda	-0.09215899
86	0xbdb076d6	-0.08616416
87	0xbce18f9d	-0.0275343
88	0xbe0ad4d9	-0.13557757
89	0xbe2e84d5	-0.17042859
90	0xbc045d0e	-0.008078827
91	0xbe3a3169	-0.18182911
92	0x3dff6400	0.12470245
93	0x3ca248bf	0.019810079
94	0x3d6a1f65	0.057158846
95	0x3e300dce	0.17192766
96	0x3e28603c	0.1644296
97	0xbdd9d8b3	-0.10637035
98	0x3e3732b2	0.17890432
99	0x3dd625bb	0.10456415
100	0x3d6c461d	0.057684053
101	0xbb0c06eb	-0.0021366428
102	0xbd54840e	-0.05188375
103	0xbd16259f	-0.036656972
104	0x3e2690cb	0.16266172
105	0x3ddb53b7	0.10709327
106	0x3d048c17	0.032360163
107	0x3e061f20	0.13097811
108	0x3dcc0503	0.099618934
109	0x3cc9884a	0.02460112
110	0x3e5b5995	0.21420892
111	0x3e305930	0.17221522
112	0x3b435623	0.002980598
113	0x3e3f2d07	0.1866952
114	0x3ccc3990	0.024929792
115	0x38449426	4.6868015e-05
116	0x3e41d5d7	0.1892923
117	0x3e62d6ee	0.22152302
118	0x3e513439	0.20430078
119	0xbd9fb975	-0.07799045
120	0xbd8f739b	-0.07004472
121	0x3e0ef71b	0.13961451
122	0xbd95dfdb	-0.07318088
123	0x3e2527fd	0.16128536
124	0x3e860dc8	0.2618239
125	0xbdcf30f2	-0.101167575
126	0x3e2d0ee4	0.16900212
127	0x3e565013	0.20928983

weight_ih_l1 f4 [128, 64]
0	0xbbc0568d	-0.0058696927
1	0xba29ff1d	-0.0006484853
2	0xbb3ce553	-0.0028823211
3	0xbd0bcd2c	-0.034131214
4	0xbc1ef2e0	-0.009701461
5	0xbbee035f	-0.0072635855
6	0x3d019be4	0.03164281
7	0x3cf375ec	0.029719315
8	0xbb6435bf	-0.0034822074
9	0x3cf1b017	0.029502911
10	0xbc0703f0	-0.008240685
11	0x3c2d70bd	0.010585961
12	0x3d9ab544	0.07554105
13	0xbd04fcd5	-0.032467682
14	0xbdcce36f	-0.10004317
15	0x3cc41853	0.02393738
16	0xbc88e833	-0.016712284
17	0xbcd90086	-0.026489507
18	0xbcc18e89	-0.023627536
19	0x3d4fe3eb	0.05075447
20	0xbd046618	-0.032323927
21	0xbcd7a3e9	-0.026323276
22	0xbcb80b12	-0.022466216
23	0x3d376f59	0.044783924
24	0x3c2d8630	0.010591075
25	0x3d9674e2	0.073465124
26	0x3d34cff9	0.04414365
27	0x3d8ecd4b	0.0697275
28	0xbc0b3398	-0.008496188
29	0xbc20a9be	-0.009806095
30	0x3c9efb1d	0.01940685
31	0x3ce306b4	0.027713157
32	0xbcbb3d6e	-0.02285644
33	0x3d669d96	0.05630263
34	0x3c6d42d5	0.014481266
35	0x3d624940	0.055245638
36	0x3d0796a3	0.033102643
37	0x3d94dfa6	0.0726922
38	0x3ccbb322	0.02486569
39	0xbc86f058	-0.016472027
40	0x3c42d1ca	0.011890838
41	0xbcd361aa	-0.025803406
42	0x3d2d20ba	0.04226754
43	0x3d569037	0.052383628
44	0xbd700ab6	-0.058603965
45	0xbcad5105	-0.021156797
46	0xbd111598	-0.035420984
47	0x3ca5ca1c	0.020237975
48	0x3bef0257	0.00729398
49	0xbcb6ad14	-0.022299327
50	0xbc98ec28	-0.018667296
51	0xbbb22b60	-0.0054372996
52	0xbd2b9982	-0.041894443
53	0x3d15674e	0.036475472
54	0xbd633e78	-0.055479497
55	0x3d00bad2	0.031428166
56	0xbdac7576	-0.084208414
57	0xbdd295cc	-0.10282478
58	0x3c958c97	0.018255515
59	0xbc1a29cc	-0.009409379
60	0xbcfc10e6	-0.030769777
61	0x3cf06bae	0.02934822
62	0x3b1cbebe	0.0023917402
63	0xbd141d6a	-0.036160864
64	0x3c9ca932	0.019123647
65	0x3c5f4494	0.01362719
66	0xbc5f44c5	-0.013627236
67	0xbd3c0b93	-0.045909476
68	0x3b7f1b3e	0.003892615
69	0xbd423d89	-0.047421966
70	0xbc4115f0	-0.011785015
71	0xbb118022	-0.0022201617
72	0xbce3f4bf	-0.027826665
73	0x3d6ac435	0.057316024
74	0xbc2268e9	-0.009912708
75	0x3d958481	0.07300664
76	0x3c77d6e5	0.015126918
77	0x3d5e885d	0.054329265
78	0x3cb5e2e3	0.022202915
79	0x3d89b2ca	0.067235544
80	0xbd386ac0	-0.04502368
81	0xbd224e36	-0.03962537
82	0xbb0e2cad	-0.002169411
83	0xbd732346	-0.05935981
84	0xbc7f5f43	-0.015586677
85	0xbd8e14d1	-0.06937564
86	0xbcc5ad42	-0.024130467
87	0x3cb3d531	0.021952244
88	0xbb4c0f5c	-0.0031137085
89	0xbb7ba8cc	-0.0038400171
90	0x3dd35610	0.103191495
91	0x3c8bd30a	0.017068405
92	0xbd5c3804	-0.05376436
93	0xbba4d2a9	-0.0050299955
94	0x3d2a2691	0.041540686
95	0x3ccc98d6	0.024975222
96	0xbca5e8a7	-0.020252539
97	0x3cc8ca49	0.02451052
98	0x3d56ee4b	0.052473348
99	0x3c4ee2d8	0.012627326
100	0x3d1461e2	0.03622616
101	0x3d0f42a5	0.034975667
102	0x3d36b318	0.04460439
103	0xbca5c6e9	-0.02023645
104	0x3aa00e07	0.0012211212
105	0xbd2b22e7	-0.041781332
106	0x3cbe520b	0.02323248
107	0x3c8300cd	0.015991593
108	0xbcec9c69	-0.028883176
109	0xbd90532e	-0.07047115
110	0xbd96940e	-0.07352458
111	0x3d69e88b	0.057106536
112	0x3c10c897	0.008836887
113	0xbc957219	-0.018242883
114	0xbca17c39	-0.019712554
115	0xbc98b2cd	-0.018639946
116	0xbc9f3670	-0.019435138
117	0x3ca16c50	0.019704968
118	0xbd179143	-0.037003767
119	0xbc9644b6	-0.01834331
120	0x3c238152	0.009979563
121	0x3bd9c3d6	0.00664566
122	0x3c014266	0.007889366
123	0x3cb2c9a8	0.021824673
124	0xbd4dc8f1	-0.05024046
125	0x3bdf0072	0.006805473
126	0x3d2e58c3	0.04256512
127	0xbcb0f438	-0.021600828
128	0x3bb06ed3	0.005384305
129	0x3ae2a383	0.0017291162
130	0xba0decb0	-0.00054139923
131	0xbc421355	-0.011845429
132	0xbc16bbda	-0.009200061
133	0xbb209578	-0.0024503153
134	0x3cec3d4b	0.02883782
135	0x3c6bf25c	0.014401045
136	0xbc70297b	-0.014658327
137	0x3d5c1327	0.053729203
138	0xbbfc3966	-0.007697272
139	0xbd08a2a8	-0.033358246
140	0xbc00649b	-0.007836486
141	0x3c1c413b	0.0095370365
142	0xbd1f4365	-0.03888263
143	0x3cd13f2d	0.02554282
144	0xbcaac9d3	-0.02084819
145	0xbcaa3931	-0.020779224
146	0xbbf7f85d	-0.007567449
147	0xbd10577c	-0.03523968
148	0xbbaaccb3	-0.0052123903
149	0xbd5b1e2c	-0.05349557
150	0xbbc02ae0	-0.005864486
151	0x3d2cf7ec	0.042228624
152	0x3d13ec3b	0.03611396
153	0x3d3c33e3	0.04594792
154	0xbbcc8114	-0.0062409732
155	0x3d7aba4d	0.061212827
156	0xbcae4d3b	-0.02127706
157	0xbbb2dc83	-0.005458416
158	0x3cbae9de	0.022816595
159	0x3c992ce6	0.018698167
160	0xbcabf2c2	-0.02098978
161	0x3d0d285f	0.03446233
162	0xb9b9f292	-0.0003546668
163	0x3d09a2cd	0.033602525
164	0x3d23317b	0.03984211
165	0x3d8b7fd0	0.06811488
166	0x3bef974f	0.0073117386
167	0xbc15dcbe	-0.009146867
168	0x3c0a6318	0.008446477
169	0x3ce69460	0.028146923
170	0x3d4000ed	0.046875883
171	0xbce8656a	-0.02836867
172	0xbd563644	-0.052297845
173	0xbc9267d4	-0.017871775
174	0xbcbc9b82	-0.02302337
175	0x3d147464	0.03624381
176	0x3b8b7d5e	0.0042568883
177	0xbc5bc5a6	-0.013413822
178	0xbc4c11cd	-0.012455416
179	0xbcafff7d	-0.021484131
180	0xbd2a456c	-0.041570112
181	0x3d0e2612	0.034704275
182	0xbd858128	-0.06518775
183	0xbb953c4c	-0.004554307
184	0xbd847991	-0.064684995
185	0x3c666b91	0.014063732
186	0x3ccbdb21	0.024884762
187	0xb9a47f9e	-0.000313756
188	0xbd1df644	-0.038564935
189	0x3d168036	0.036743365
190	0x3d053262	0.032518752
191	0xbd0a4ab5	-0.033762652
192	0x3b838c7c	0.00401455
193	0x3b8111ee	0.003938905
194	0xbd595533	-0.053059768
195	0x3c1ef035	0.0097008245
196	0xbc03d900	-0.008047342
197	0xbc646f12	-0.013942497
198	0xbd9ac9dc	-0.07558033
199	0x3ce81092	0.028328214
200	0xbc91467f	-0.01773381
201	0x3c796003	0.015220645
202	0xbc9c9fec	-0.019119225
203	0x3dbdd24b	0.09268626
204	0x3dab2ac8	0.08357769
205	0x3d967510	0.07346547
206	0xbcc2c259	-0.023774313
207	0x3d3d2767	0.046180155
208	0xbb40bd2e	-0.0029409635
209	0xbd1c262a	-0.038122334
210	0xbbff32e4	-0.007788049
211	0xbd3c4cfa	-0.045971848
212	0xbd9fa484	-0.07795051
213	0xbd713b49	-0.05889443
214	0xbd2cf69f	-0.042227384
215	0x3d6a546b	0.057209413
216	0xbbbab2b1	-0.005697571
217	0xb9b37b24	-0.00034233287
218	0xbd554753	-0.052069973
219	0x3d40f151	0.047105137
220	0xbce97a03	-0.028500563
221	0x3b448d52	0.002999146
222	0x3c8b623d	0.017014617
223	0x3d2fb2ef	0.042895254
224	0xbc0dd8e4	-0.008657668
225	0x3ae441b8	0.0017414605
226	0x3d305547	0.043050077
227	0x3d8245e6	0.06360988
228	0x3ba712ce	0.0050986772
229	0x3db24de2	0.08706261
230	0xbb14dc5b	-0.002271435
231	0xbb987176	-0.0046521975
232	0x3d588f96	0.05287131
233	0xbcf4c481	-0.029878857
234	0x3d38330a	0.04497055
235	0x3dd3ad04	0.103357345
236	0xbdae88c4	-0.0852218
237	0xbc8ff0b0	-0.017570823
238	0xbbee612c	-0.0072747674
239	0x3cd391f3	0.02582643
240	0x3c8005af	0.01562771
241	0xbcd3be4f	-0.025847582
242	0xbc48a59c	-0.012246516
243	0x3bc02ab9	0.005864468
244	0xbd754e27	-0.059888985
245	0x3d590843	0.052986395
246	0xbd801c8c	-0.06255445
247	0x3c886e94	0.01665429
248	0x3d6d1456	0.057880722
249	0xbdd11847	-0.10209709
250	0x3cc8f178	0.024529204
251	0x3c4222d1	0.011849121
252	0xbd4a5277	-0.04939505
253	0x3ce4266e	0.027850356
254	0x3d1724fe	0.036900513
255	0xbd1da67b	-0.038488846
